uploads/15.pth (torch, 739269 bytes, 27 tensors)

b f4 [4]
00000000: 590c 153e f2ad 743e 64ea 043e 9d7b 063e
0.14555492 0.2389448 0.12980038 0.13133092

branch.Wz.0.weight f4 [16, 5]
00000000: fa7e 01be 2d6b 2bbd bd16 6b3d 4418 203e
00000010: 0862 22bf c2b4 3c3e 2f37 35be 44dd 423e
00000020: a7dc acbe abd1 373e ba57 50be 2343 323e
00000030: 6b11 a53e 6b75 a63c f99f 7b3e f359 8abd
00000040: 0d24 b43e 9cc2 41bd 592d 9f3d 63ad 40be
00000050: 339e 0a3e cd56 ebbe 5f34 1a3e 3b65 4abc
00000060: b431 62be 1491 833e 0c5c abbe e04a a2be
00000070: 3df0 a43e a39d d0be 2c94 8ebe c16b 1c3e
00000080: d794 753d 92bc 3e3f d7f6 fb3e 94a4 c1be
00000090: 4730 863e 6644 acbb 7216 543e 1250 60bc
000000a0: 50c6 c43d f2b9 913e b6b9 1dbf 0ca3 553e
000000b0: 85fa 44be 50ad 273e 632e 883e efe1 a5be
000000c0: 83a5 90bd 3c2c 05bd 3bc9 473c 4d3e ab3d
000000d0: 271f 8bbe ad19 9d3e 4b29 6fbe ea3b 3dbd
000000e0: 3bc4 8abe 3eba cb3e bbb9 1a3e 3fb5 97be
000000f0: 560e 1e3e 2542 12bf ad00 75be 8b47 c8bc
00000100: 08f4 b0be f494 e5be 3d62 763e da03 86bc
00000110: 1f78 c8bd fa96 07be 26c7 7c3d 2f13 11be
00000120: 0cbc 41bf 6581 f03c 6451 a43e e575 bd3b
00000130: 1eb3 b13d fa60 dd3c f202 80be ccb1 a9be
-0.12646094 -0.041850258 0.05739473 0.15634257 -0.63430834 0.18428329 -0.17696832 0.19029719
-0.33762094 0.17951076 -0.20345965 0.17408423 0.3223985 0.020319661 0.24572743 -0.06755438
0.35183755 -0.047304735 0.07772321 -0.18816142 0.1353691 -0.4596466 0.1505904 -0.012353237
-0.22089273 0.25696623 -0.33468664 -0.3169775 0.32214537 -0.40745267 -0.2784742 0.1527548
0.059956398 0.74506485 0.4921176 -0.37820876 0.26208708 -0.005257177 0.20711687 -0.013690965
0.096081376 0.28462178 -0.616115 0.20862979 -0.1923619 0.16374707 0.2659789 -0.32398936
-0.07062819 -0.03251289 0.012193973 0.08361492 -0.27172205 0.30683652 -0.23355596 -0.046199717
-0.27102837 0.3979053 0.15109913 -0.29630467 0.15435156 -0.5713218 -0.23926039 -0.024448177
-0.3456118 -0.44840205 0.24060912 -0.016359258 -0.09788536 -0.13241187 0.06171336 -0.14167474
-0.7567756 0.029358575 0.32093346 0.0057818764 0.08676742 0.027023781 -0.25002247 -0.3314346

branch.Wz.0.bias f4 [16]
00000000: 2bc7 a93d a309 afbd 5c41 bd3e df50 e03d
00000010: a463 53be 4971 f1bd 5914 09bd 1576 823c
00000020: 702d 013d fbb4 debd 6996 813d 4e35 f7bd
00000030: 24fa 3dbd 9d28 563e 2fb2 243e 9728 803d
0.082899414 -0.0854676 0.36963928 0.10952925 -0.20643479 -0.117891856 -0.03346667 0.015925447
0.031537473 -0.10874363 0.063275166 -0.12070714 -0.04638113 0.2091393 0.16083597 0.06257742

branch.Wz.1.weight f4 [64, 16]
00000000: d5e9 44bd 20b8 6bbd da38 2cbe 468e f33d
00000010: 799f 16be fc7c 8a3e d8cc 683d bc41 b3bc
00000020: d9eb 233d 566a 743c 47a1 1fbd 4138 4abc
00000030: 494f de3c 6140 f1bb 4f34 243e e54e 183f
00000040: b0b4 e6bd daa1 5ebd 1be2 8c3e 4727 143e
00000050: f32e 133d 9931 1f3e df0c 15be 40ff 873e
00000060: 76da 84bd 3bfb fc3d 1ca5 d33d 3272 89bd
00000070: 22d7 983b fba3 4a3d b404 83be 852c 4d3e
00000080: fe48 6a3e de2b 9cbd 6a91 a33c 55ca 50be
00000090: ae62 b83b 3598 bd3d 4514 57be 9278 daba
000000a0: b99c a7be 0f30 94bd f728 c83d 8304 5ebe
000000b0: 0fa6 86be 7c6d 2c3d 556a 3f3e 3659 dd3e
000000c0: f6b7 283d c4c1 083e 96a3 823d 18d7 21be
000000d0: 1a18 41be 81fe 5d3d 01e8 12be 3782 733c
000000e0: 97d0 73be 76c7 81be c9af 463e fa8e 463e
000000f0: dd5c 26be 457f 2ebe 3746 3e3e 3982 36bd
00000100: 3bf7 b3bd ee31 a4bc 02e5 ef3d b5aa 94bd
00000110: b13c 7dbd ce6b e23d eb91 99bc 66af 033e
00000120: ba2e b2bd 1669 3a3e 0b22 be3d 1b95 8bbd
00000130: b5bd fc3d c11a 4c3e 57a7 bfbd 2831 5fbd
00000140: 43bc 473e 76a2 09bb ffd7 bf3d 4416 51be
00000150: 6464 d83d 3fbf 04be 9cf1 2b3e b3c4 64bd
00000160: fa74 98be 349a 18bd 3778 0e3d 2a91 36bd
00000170: efaf d9bd 1432 f1bd 6ef9 263c b351 abbd
00000180: f07a 113e 4f8a 9ebd 9b6c 4a3d 0f11 043e
00000190: ba09 7a3e 012f 52be 641e b53d 55d6 a5be
000001a0: 8a85 dcbc 314b 3c3d 3018 08be bf7e 0cbe
000001b0: e433 033e bd7c f2bc bc6a b93c 1483 12be
000001c0: 027d 703d d03a fa3d 5e79 c7bd 444f c8bd
000001d0: acba 39be c9c4 083d 67d0 df3c eccb 863e
000001e0: 1839 8d3d ce80 7abd 8e47 963d 8bfb d1bd
000001f0: 1c29 4e3e 74c7 2dbd b7e2 86bd 1fe3 11be
00000200: d2a0 95bd 5034 193e d581 acbd 1ad9 e4bd
00000210: c3df 6abe 3dbb b4bd b9e2 31bd 78fc b53e
00000220: 2c4d 82bd 45bc 023f cb6a bc3d cf94 b93d
00000230: 6a70 31bc ea59 793c a2e3 5dbd cb41 9ebe
00000240: 8038 f0bc 204e cebd 869f 21bd a64a 8fbe
00000250: 86ec aebe 2568 613e 8953 2e3d a5c6 48bd
00000260: 9edd 97be beb9 14be ab8e a1be f10b 833e
00000270: b07e 0abe c7b2 7d3b ffea 973d ff0f c7be
00000280: e620 a1bd 4c93 bebc 79ca bfbd 75fd bebc
00000290: 16c5 c73d aec5 e9bd cc4c dc3d 046b 003e
000002a0: 1fbb 9a3d 5b79 af3d 8440 d3bb 28ca 04be
000002b0: 1d03 883e 43da aabd f8ad 0d3e e613 c43d
000002c0: ff20 673e 9ec8 ddbd 9cb2 bebd b85d afbd
000002d0: 8c51 343e e925 dd3d 48c7 07be da14 c3bd
000002e0: 1636 b83e 2d10 31be a000 923c fb7e a9be
000002f0: a69f 05bd edf5 8a3d 9a8e 40be 776f 4bbe
00000300: 25bf 6b3e f79a b43d eb66 8abe 526f 4bbd
00000310: d3ce b13e db99 d3bd 7bd6 40be c1b6 72be
00000320: ca43 623d 5845 71be eed3 883d 075c 69be
00000330: 3c75 15be a285 1e3e c666 c63e 1b9a 54bd
00000340: 1aff 90bd b00c 80bd b9fd febd a1a7 07be
00000350: 486b ffbc 44af 55bd e592 573c c2bc 8f3d
00000360: 936b 5a3d 1b81 373e 494a d53d c733 273d
00000370: e202 563d 9ed6 1c3b fcd2 be3d 2792 063f
00000380: 6ba6 1fbd 037b a43e c780 febd b323 58bd
00000390: 13ad d43b be56 733d 20a2 92bc d061 6c3e
000003a0: 7e8d e73d 9853 e6bd 1eb9 36bb 1eb7 a33d
000003b0: cdf7 8ebd 33bd 623d d242 cf3d adfd 12be
000003c0: 03e9 02be 1dec c6bd 99f4 fe3a 3a7d 9f3e
000003d0: 4320 0cbc 0ac9 3e3e c980 03bd dff7 b5bd
000003e0: a70a 433e c6f9 d4bd a760 263e 6af4 dbbd
000003f0: acf2 f33b 2ad4 e8bb f85f 653e 07cd 943d
-0.048074562 -0.057548642 -0.16818562 0.11892371 -0.14709271 0.2704848 0.05683598 -0.02188193
0.040019844 0.014917931 -0.038972165 -0.012342514 0.027137415 -0.007362411 0.16035579 0.59495384
-0.11264932 -0.054353572 0.27516255 0.14468108 0.035933446 0.15546264 -0.14555691 0.26561928
-0.064869806 0.12352606 0.103342265 -0.06711234 0.0046643177 0.04947279 -0.25589526 0.20036514
0.22879407 -0.076255545 0.0199668 -0.20389684 0.005626998 0.09257547 -0.21003826 -0.0016668013
-0.32736757 -0.07235729 0.097734384 -0.21681409 -0.26298568 0.0420966 0.18692906 0.43232125
0.041191064 0.13355166 0.06378858 -0.15804708 -0.1885685 0.054197792 -0.14346315 0.014862589
-0.2381004 -0.2534749 0.19402994 0.19390479 -0.16246362 -0.17040737 0.18581472 -0.044557784
-0.0878739 -0.02004334 0.11713602 -0.07259122 -0.061825458 0.11055718 -0.018746337 0.12859878
-0.08700319 0.1820415 0.09283837 -0.06815549 0.12340871 0.19932081 -0.093580894 -0.05449024
0.1950541 -0.0021001375 0.0936737 -0.2041865 0.10566023 -0.1296358 0.16791385 -0.05585165
-0.29776746 -0.037256435 0.034782615 -0.044572033 -0.1062926 -0.1177713 0.010191305 -0.08365192
0.14207053 -0.07741224 0.04941998 0.12897132 0.24417773 -0.20525743 0.08843687 -0.32390085
-0.026919145 0.045970146 -0.13290477 -0.13720225 0.12812763 -0.029600495 0.022633903 -0.14307815
0.058712967 0.12218249 -0.09739946 -0.09780744 -0.18137616 0.033390794 0.027321054 0.26327455
0.068956554 -0.061157994 0.07337867 -0.10253056 0.2013287 -0.04242654 -0.06586211 -0.14246796
-0.07306065 0.14961362 -0.08423201 -0.11174221 -0.22936921 -0.08824775 -0.04342911 0.3554418
-0.063623756 0.51068527 0.09200057 0.09061586 -0.010830024 0.015219191 -0.054172166 -0.3090957
-0.029323816 -0.10073495 -0.039458774 -0.2798664 -0.34164828 0.22012384 0.042560134 -0.049017567
-0.29661268 -0.1452398 -0.3155416 0.25595048 -0.1352489 0.0038711296 0.07417869 -0.38879392
-0.07867603 -0.023263596 -0.093647905 -0.023314217 0.09754388 -0.114146575 0.10756835 0.12540823
0.07555222 0.085680686 -0.0064469 -0.12967741 0.26564875 -0.08342411 0.13835895 0.09574108
0.22571181 -0.1082928 -0.09311411 -0.08562797 0.17609233 0.107982464 -0.13259614 -0.095254615
0.35978764 -0.17291327 0.017822564 -0.3310469 -0.032622956 0.06785188 -0.18804398 -0.19866739
0.23022135 0.0881862 -0.27031645 -0.04966671 0.34728107 -0.1033208 -0.18831818 -0.23702528
0.05524043 -0.23561609 0.066810474 -0.22789012 -0.14595503 0.15480664 0.38750285 -0.05190478
-0.07079907 -0.0625242 -0.124507375 -0.13247539 -0.031179085 -0.0521691 0.013157581 0.070184246
0.053325247 0.17920344 0.104145594 0.040820863 0.052248843 0.0023931633 0.09317586 0.5256676
-0.038977068 0.321251 -0.12426906 -0.05276842 0.0064903586 0.059408896 -0.017899573 0.23084188
0.11306284 -0.11246413 -0.0027881335 0.07993911 -0.06980858 0.055356216 0.10120167 -0.14354582
-0.127842 -0.09713004 0.0019451558 0.31150228 -0.008552614 0.18631378 -0.03210524 -0.08885168
0.19047032 -0.10399203 0.16247807 -0.10739978 0.0074447 -0.00710537 0.2239989 0.07265668

branch.Wz.1.bias f4 [64]
00000000: 1038 9a3c 79f5 b33c d743 c33d 573f cabd
00000010: 2251 ce3d 6c44 a63d 4d4e 0cbe e34f 043e
00000020: b230 3b3c 90ec af3c 0c2a 623d c1f5 4dbd
00000030: 6269 c1bc 59c0 c93c 2cc2 cc3c 2dac 1e3d
00000040: 9905 533d f30c 0b3d 9683 043d c587 02bd
00000050: 7453 aa3d d013 99ba 7615 0ebd 304e 2e3d
00000060: bd78 2c3d 6056 e5bc df5f cdbc 0d45 15bd
00000070: f3b1 37bd 8b71 803b 5316 4e3d 9f74 893c
00000080: 3d64 27bd 72c2 253d 1059 7dbd 6987 08bc
00000090: 1adb 5cbc 1e51 26bd 5125 07bb 0475 bdba
000000a0: cc90 923d c940 983d 7e3f 80bb 10ca 043c
000000b0: 8d1a 553c 1ce6 babd 8a20 98bc aa5b 3abc
000000c0: bc09 6e3c 90f3 283c b5f6 8abc a243 14bd
000000d0: 1ab0 6c3d 8119 ff3c 12a2 9f3d ac14 8f3d
000000e0: a815 3fbb 337d 453d 4635 8abb fbdc 283d
000000f0: e6c3 5a3d 3cc8 f33b f341 1cbd 4cdd 7bbc
0.01882556 0.021967636 0.09534424 -0.09875362 0.100740686 0.08118519 -0.13701744 0.129211
0.011425184 0.021475106 0.05521588 -0.050283197 -0.02360982 0.024627851 0.024994932 0.03873842
0.05151901 0.033947896 0.032352053 -0.03186776 0.08316699 -0.0011678878 -0.034688435 0.042555034
0.042107332 -0.027995288 -0.025070129 -0.036442805 -0.04484744 0.0039197854 0.05031426 0.016779242
-0.04086708 0.04046864 -0.061852515 -0.008333066 -0.013479972 -0.040604703 -0.0020621608 -0.0014454429
0.07156524 0.07434232 -0.003913819 0.008104816 0.0130068185 -0.09125921 -0.018570203 -0.0113743935
0.014528688 0.010311976 -0.016963342 -0.036197312 0.05778513 0.03114009 0.07794584 0.06986365
-0.0029157195 0.048215102 -0.0042177765 0.04122637 0.05340948 0.0074396413 -0.03814883 -0.0153725855

branch.Wz.2.weight f4 [128, 64]
00000000: 0a06 c33d f452 51bd dfb9 0f3e 72be 32bd
00000010: 53e9 00be 8977 0c3e afb2 fdb8 3fdd 303d
00000020: b634 c1bd b95b 80bd 2589 2c3e 1605 483d
00000030: 3ff0 62bd baef a3bd 8462 a8bd c1ad 233e
00000040: a6a0 b93d 2130 b6bb dcb3 853d ed31 9a3c
00000050: 02b0 0cbe cf13 a53d 7f92 26bc 7129 d6bc
00000060: 0059 57be 90c6 723c 8935 2f3d 0fbc f93c
00000070: 4c90 dc3d 1c41 22be 76d2 0dbd 0b95 85be
00000080: c11b f9bc ff37 47bd e8ed 963d 13d7 413c
00000090: bc35 863d 9e0f db3d 2cb8 b63c dffe 823c
000000a0: e3a1 093e 633f c73c 804f debd 678b 553e
000000b0: 5263 483d 6cd8 a3bc cfa3 67bc 06de 7b3b
000000c0: 38b8 413e c1b5 d13d aeda 4c3e 2179 9ebd
000000d0: d37a f8bd ee90 aabd 2e90 9dbc 136e 2e3d
000000e0: c33f c33d a8fc 19bd 9dab 46bd d234 d63b
000000f0: 4de0 f9bd 79e0 9fbc 09b8 a3bc 8981 e33d
00000100: 5a4d 5d3d 0526 dd3d 20b3 a43d f47d e33d
00000110: 0197 1f3e 93f2 663d 3683 9b3d a85a e8bc
00000120: 756f fb3c 055a 703d 81dc 653e e36e 93bd
00000130: 7e6e 20be 995a c93d ec33 0cbe 4729 b83d
00000140: 02c9 06be 2bbc d43b 7e03 423d e00b 88bd
00000150: fccf 0b3e 741f acbc 429e 2dbc 116a 9a3d
00000160: e392 9b3d d9b0 533d 68fc e73d bdb7 abbd
00000170: bb10 b1bd a62b 44bd dd73 f83c 57de d33b
00000180: be48 3e3e 91fd 573d 15be fc3c 4d78 f63d
00000190: 6375 0bba 6d3a 56be e91b 44be 8dc5 bcbd
000001a0: 89af 28be 1ebc ecbd 850e d43d 4668 afbc
000001b0: a18c 0d3e 5ec0 dbbc 2537 6dbd 926c 083e
000001c0: 5ada 69bd a0fa e23d c36b debd b4bf 4b3d
000001d0: 5dba 04bd 268b 583d 5030 2abd 6562 8abd
000001e0: 2842 83bd 7b4b 163e 3ed4 f1bd fe3f 0dbe
000001f0: 9f3f c13d 7a65 34be 0883 13be c439 da3d
00000200: 49dc 783d 9bac 78bd f0e4 1a3e 0337 34bc
00000210: 2df4 8a3c d951 23be b55e 58bd 55ad 26be
00000220: 197d 6d3e 2126 263e 07b6 113d 3709 5ebc
00000230: 2fac b23d 8a29 8e3c f130 c1bd 6666 3a3e
00000240: ed48 02be 80c3 b93d 09fe 78bd f36d 4abe
00000250: d5ff 37bc c1dc c43d 843b 11bd 9a30 9e3d
00000260: 78d2 b13d c88d ba3c 69e6 92bd a21e 50bd
00000270: 229d 5c3c da6d b33d 3b2c 56bd ecc0 12be
00000280: a477 4bbd e0d2 453d 7e67 14bc 2b55 233d
00000290: 6949 eabc 5906 cdbc 1384 afbd d686 b6bd
000002a0: 39da 0d3e 23f0 d8bc 7b7b 143e 39d8 403e
000002b0: 0564 34be fe81 02be d214 27bd 911d ffbd
000002c0: fdd0 34be eda3 5e3d 2674 553e 2842 2e3d
000002d0: de39 063d 743d 05be d579 f73c f053 e03d
000002e0: 8844 cc3d 01c3 0ebd 157d e43d d688 bc3d
000002f0: 07c1 703d 57b8 3d3c 987b afbb 64ba fb3d
00000300: 74bf fcbb 11b8 ff3a e92d 1a3e 9e36 093d
00000310: a28d 69be e835 a73d c998 4abd aaf1 753c
00000320: 68c2 fdbd 090c 823d f64d e13d f649 bf3c
00000330: df72 a03d dedb 793d 234c 5a3e ae2a 193e
00000340: 18e8 0d3d 810e a43c 35df f1bd 79cc a53d
00000350: 26d8 fa39 b4a5 2dbd 2838 31bc f5c0 463b
00000360: b583 ce3d 223b 49bd ace5 dbbd 110c 7dbd
00000370: 787a af3c 7e81 783d cd94 8cbe 723c 943d
00000380: c168 67bd 066d 9d3b dab5 133e fabc 17be
00000390: f821 a0bd b8ed f83c 15e4 2bbe e7c6 013d
000003a0: 3ee3 703d 1014 c73c 6db0 0b3e cea1 1abe
000003b0: 52c0 023e 196b 5f3d cc86 573d 768e a7bc
000003c0: 4728 f93d b947 243e 568a 593d 3c94 033e
000003d0: 7ce5 9f3c ab54 4bbe 3522 aabd cd1d 13be
000003e0: 1b4f 0c3e f0f8 6abe 15fb c4bd a82b d5bc
000003f0: 8406 bdbd 1b24 5a3d 83c8 c73d 4203 993d
0.09522636 -0.0511045 0.14035748 -0.043638654 -0.12589006 0.13717474 -0.000120972625 0.043179747
-0.09433882 -0.06267495 0.16849191 0.048832975 -0.055404898 -0.080047086 -0.08221915 0.1598425
0.090638444 -0.0055599366 0.06528446 0.018822635 -0.13739017 0.08060419 -0.010166763 -0.026142808
-0.21030045 0.014817849 0.042775664 0.030485181 0.1076971 -0.1584515 -0.03462454 -0.26090273
-0.030408742 -0.048637386 0.07369596 0.011831063 0.06553218 0.10696338 0.022304617 0.015990673
0.13440661 0.024322217 -0.10855007 0.20853959 0.048922844 -0.020000659 -0.014138176 0.0038431897
0.1891793 0.10239745 0.20005295 -0.07737947 -0.12132802 -0.083284244 -0.01923379 0.042585444
0.09533646 -0.037594467 -0.048503507 0.0065370584 -0.12200985 -0.019516217 -0.019985216 0.11108691
0.054028846 0.10798267 0.08041978 0.11108008 0.15584947 0.05638368 0.07593386 -0.02836354
0.030692795 0.0586796 0.22447397 -0.07198884 -0.1566715 0.09831733 -0.13691682 0.08992248
-0.13162616 0.006492158 0.04736661 -0.0664289 0.13653558 -0.021011092 -0.010596814 0.07539762
0.07596376 0.051682327 0.113274395 -0.08384655 -0.08645769 -0.04789319 0.030328685 0.006465714
0.18582436 0.052732054 0.030852357 0.12034664 -0.0005319921 -0.20920725 -0.19151272 -0.09217367
-0.16473211 -0.11559318 0.10354332 -0.021412026 0.13823177 -0.026825126 -0.057913918 0.13322666
-0.057093002 0.11082959 -0.10860398 0.04974337 -0.032404292 0.052867077 -0.04154998 -0.067570485
-0.06409103 0.14677231 -0.1180806 -0.13793942 0.09435963 -0.17616835 -0.14405453 0.10655549
0.060756955 -0.060711484 0.15126395 -0.010999444 0.016962135 -0.15949191 -0.052824695 -0.16277058
0.23192252 0.16225483 0.035573985 -0.013552002 0.08724248 0.017353792 -0.09433163 0.18203124
-0.12723131 0.09070492 -0.06078914 -0.19768505 -0.011230429 0.09612418 -0.03545715 0.07724114
0.08682722 0.022772685 -0.071728535 -0.050810464 0.013465198 0.08761187 -0.052288275 -0.14331406
-0.049674645 0.04829681 -0.009057878 0.039876144 -0.028599458 -0.02502744 -0.08570113 -0.08912437
0.13852777 -0.026481694 0.14500229 0.18832482 -0.1761628 -0.127449 -0.04079134 -0.12456811
-0.17657848 0.05435555 0.20845088 0.04254356 0.03277003 -0.13011724 0.030209461 0.1095351
0.09974009 -0.03485394 0.1115667 0.09205787 0.058777835 0.011579595 -0.0053553097 0.122914106
-0.0077132527 0.0019509812 0.15056576 0.033499353 -0.22807935 0.08164579 -0.049462114 0.0150112305
-0.12390596 0.06349952 0.11001198 0.023350697 0.0783441 0.061000697 0.21318106 0.14957687
0.03464517 0.020026447 -0.118101515 0.08095641 0.0004784476 -0.042394355 -0.010816611 0.0030327414
0.10083715 -0.04912866 -0.10737166 -0.061779086 0.021420702 0.06067037 -0.27457276 0.072380915
-0.056496385 0.0048042564 0.1442484 -0.14818183 -0.07818979 0.03038679 -0.16786225 0.03168383
0.058810465 0.024301559 0.1364152 -0.15100786 0.12768677 0.054545496 0.052618787 -0.020453673
0.121658854 0.16042985 0.053110443 0.12849516 0.019518606 -0.19856517 -0.08307306 -0.14366837
0.13702051 -0.22946525 -0.096182026 -0.026021793 -0.092297584 0.05325709 0.097550415 0.074713245

branch.Wz.2.bias f4 [128]
00000000: c923 ccbb e3b7 c1b9 63d2 3c3b d9a3 b8bb
00000010: 7665 6d3a fd63 b23b 14a0 9aba a36b 13bc
00000020: 9108 b6bb a473 5bbd 25b0 45bd 75e1 78bb
00000030: 2141 37bc f029 cc3c 8749 20bc f28f 78bc
00000040: faa1 15bc 4b0c 21bc 8dda db3a 18db 1bbb
00000050: c8f5 bcbc 393a 74bb 61d2 42bc 03df 1e3c
00000060: d24e 173c 610f c8bc baad a03c 32f8 ec3b
00000070: 0eba fd3c d242 d33b 8276 5a3c f742 b4bc
00000080: 2760 0d3c 8c1f d83a f811 febc 3a48 593c
00000090: e173 b73b 81c3 613c 2bed 033c ea83 c73c
000000a0: d630 e2bb 5c81 a2bc 8202 593c 0510 ba3c
000000b0: dbee 383c 54e7 d4bc 20ff ae39 a2d0 aa3c
000000c0: 93aa 833b 1ceb 173c 5d06 98bc d53e 1e3d
000000d0: f107 c9bc 80f4 183c c441 3f3b e973 823b
000000e0: 2967 e8bc 16f6 e6bb 6e30 d5bb 40f4 a13b
000000f0: 804b 5bbc 28a9 103d f934 193d fcd6 abbb
00000100: 723a 1bbb 41de 663c c672 97bc 7eb9 0a3d
00000110: a774 4dbc 4239 0bbb cb37 4b3b 86ae 3bba
00000120: 248b 8ebc f458 593c b445 84bc 553c 2dbc
00000130: d0c8 2c3c b689 c4ba 999b bdba 1bb8 80bb
00000140: 31b7 d8bb 7c2f f33c 77f0 b33c 5f46 81bc
00000150: 2696 db3c d15a 9ebb 45d4 213c 84aa 6fbb
00000160: db9f a83b 0dfa f33b ce41 263d 34b5 87bc
00000170: d81b 3c3b feb1 d9bc 85ff 0fbc d1de cabc
00000180: a493 25bc 0ef7 bdbc d01f bf3b a3a7 c33c
00000190: 382b 3c3c 04f6 ffba 535b d13b ca32 22bb
000001a0: f220 3ebc 7cfa 1abd ee59 f1bb 8610 01bb
000001b0: decd 44bc 2881 92bb b7e9 993b 3449 afbb
000001c0: 09c8 afbc be6b be3c d78b 02bd 45a5 f2bc
000001d0: 0a38 bc3c 460d 77bc ee58 8a3c c5fa 963c
000001e0: f7e8 b8bb 81ff ac3b 6e56 083d 53e9 91bc
000001f0: db9b 27bc c5ef 50bc 80b1 eb3c c938 b23c
-0.006229852 -0.00036948835 0.0028811924 -0.0056347665 0.00090559514 0.0054440484 -0.0011796975 -0.008997831
-0.0055552204 -0.05357708 -0.048263688 -0.003797618 -0.011184962 0.024922341 -0.009783155 -0.015171038
-0.0091328565 -0.009829591 0.0016773507 -0.0023781713 -0.023066416 -0.0037266149 -0.011890979 0.009696725
0.009235101 -0.024421396 0.01961409 0.0072317356 0.030972507 0.0064471746 0.0133339185 -0.022004588
0.008628882 0.0016488894 -0.031014428 0.013261849 0.0055985306 0.013779522 0.008052151 0.024354894
-0.0069027944 -0.019837074 0.013245227 0.022712717 0.011287416 -0.025989212 0.0003337795 0.020851437
0.0040181368 0.009272363 -0.018557722 0.03863414 -0.02453992 0.009335637 0.0029183486 0.0039811027
-0.028369503 -0.0070483787 -0.0065060174 0.004942447 -0.0133847 0.03531757 0.037404034 -0.005244134
-0.002368596 0.014091075 -0.018487345 0.033868305 -0.012540019 -0.0021243845 0.0031008597 -0.000715949
-0.017400332 0.013265837 -0.016146518 -0.010573466 0.010545924 -0.0014994654 -0.0014465927 -0.003928197
-0.006613635 0.029685728 0.021965249 -0.015780626 0.026804995 -0.0048326035 0.009877269 -0.003657014
0.0051460094 0.00744558 0.0405901 -0.016565897 0.002870312 -0.026574131 -0.008788948 -0.02476445
-0.010106001 -0.023189094 0.00583265 0.023883646 0.0114849135 -0.0019528274 0.0063890605 -0.002474951
-0.011604534 -0.037836537 -0.007365457 -0.0019693687 -0.012011973 -0.004470963 0.0046970504 -0.0053493027
-0.021457689 0.023244735 -0.031871643 -0.029619822 0.02297594 -0.015078848 0.016888108 0.018430123
-0.005643006 0.005279482 0.03328555 -0.017811453 -0.01023003 -0.012752478 0.028771162 0.021755593

branch.Wz.3.weight f4 [128, 128]
00000000: 9e34 8a3d 63d8 793d 88f1 04bd 265a c53d
00000010: 9b20 253d 603f 0d3e 869c 21bd 5f2a 56bd
00000020: 6cd6 00be 8b65 f6bb d5ad d23d 10b4 8cbd
00000030: 80e7 873d d7fe a53c 43f9 a63c 45f3 0a3d
00000040: 8027 c2bd 9b03 f43d 56dc 143b 8c78 523d
00000050: 6f7f 6fbc 37e9 a33d e52d fb3c 7b51 1cbc
00000060: 2ff1 333d 82a2 8cbb bbb1 2d3e 545e 95bd
00000070: 9aec aebd ffa0 743c 105e bc3c a31f acbd
00000080: ad84 443d 06c8 79bc 95db 763b fb61 d93d
00000090: bed2 e33d 330a e6bd dab8 553d e83a fa3d
000000a0: 2183 b13d c97d c03d c1a8 efbb ea10 bebd
000000b0: 7ee3 2dbe 4f2b 3f3e acc0 67ba 8a0e a0bd
000000c0: adb5 93bc 163a 7abe fd78 10be 5981 0abe
000000d0: cf4b d8b9 07f6 31bd 02eb e23c 3f7c 3f3c
000000e0: 3282 3abd 66c8 283e c89c c9bd c694 3ebc
000000f0: 1ab7 97bb 3c9e 1b3e 08b1 783d 5317 2b3c
00000100: 9c93 1d3d ec12 63bd 8156 b1bd 356a 403d
00000110: 84b6 efbd 97bb dfbd e87b 8abd 8d81 233d
00000120: 6528 413c ff3b 363e 34d5 c5bc d734 583a
00000130: b312 2f3d 0c8c bfbd b89b 8d3d b479 5dbd
00000140: e103 0a3d cd63 94bd 8536 45bd 1b8b 903d
00000150: 048c 583c 4ffe 46bc 8ad6 e33d 86b4 42be
00000160: f03d 00be b848 843d 9a6c 3ebe 0fc6 0f3e
00000170: 6a7e e8bd d3be abbd bd9f 2c3d 850a c9bc
00000180: 6b44 9d3d e5c1 04bd 8144 dc3d 5bb9 21bd
00000190: eebf 3fbc 392e 95bd e2be bbbd e720 173d
000001a0: 4e51 dabc b71f 2cbd e76b fa3d ac90 1c3e
000001b0: 6f77 1bbc 0b18 b73c bcab 333d 3714 f13d
000001c0: 2180 7f3d c755 ad3d 8d56 713d d685 36bd
000001d0: 6ff6 903d dd5f b23d 1b39 89bd b381 053c
000001e0: 919e c53b f5bd 8bbd 3afa 183c 6a47 3bbd
000001f0: 54bb a4bd d59a dcbd 84ca 2e3d 4140 533d
00000200: c519 ce3c 95ad 68bd 3c20 b7bd ca66 b5bd
00000210: 7d3d 87bd a8e9 1b3d 8c2d 413e 3110 2fbd
00000220: 36bb b93d 84fb 0abc a564 7c3d 11f2 49bd
00000230: af06 c83c 13cc 9b3d f848 273d 3a98 92bd
00000240: 026b 9b3d b567 773e 5bf8 8b3e 480b e7bd
00000250: 3588 25bb bcc8 7bbd 1666 a6bd b599 8e3c
00000260: 4118 b83d c742 143e b374 453d 96c8 f93d
00000270: 1e48 d63b 7b21 debd 2618 283c df07 5dbd
00000280: 06e8 2d3e 7c3b d4bd 9e90 d23b 86c4 cd3c
00000290: 3bc3 07be 2a80 973d c550 143d f9e2 97bd
000002a0: e1f7 f1bb 43c9 d6bd c9af b43d 46c5 24be
000002b0: 76a5 623d b132 9cbd 2aba 893d a1f2 1bbd
000002c0: f2f9 193e a779 9fbd da41 efbc cdbe 1cbe
000002d0: eac2 04bd fd66 333d 40ea 13be c794 c3bd
000002e0: 3c42 cb3c 45f8 5cbd 70c8 17be 8e4f b43d
000002f0: 33ee 433d 428f b5bd 0b68 61bd 428e 1d3c
00000300: 1a66 113d abf0 103d e111 96bd 242f 44bc
00000310: bfc4 2e3d 5cac 20bd 307a 3f3d 2cc8 37bd
00000320: 9c8b a73c 5d3b 2ebe a016 18be f66e 02bd
00000330: f21b 1e3c aa0e 0e3e ba9c 9bbc 133e 2bbc
00000340: 5eb0 fe3a 2c83 3fbd 6f57 dcbc b048 74bd
00000350: 5b06 133e 4c6a 38bd a786 7abe 79f9 2ebb
00000360: 6c01 bbbd 05ee 713d 17c5 5abc 18e1 a13c
00000370: a514 df3a 2fd3 30bd 70ef 283d 1bf5 62bd
00000380: 488c 6d3d 2ef9 c73d 55b3 e7bd 7f7c debd
00000390: 193e 6ebd 8c05 0b3d 77a1 673c 70a2 11be
000003a0: ad8c 14bd 0d2f 6bbd 879a be3d e728 253d
000003b0: 30b4 c13d 1780 633d 556b 19bb a931 5d3d
000003c0: 8396 333d 5fae b7bd 5dcb 8b3e bb18 7cbd
000003d0: c183 c7bd 42dc 903c c80c a0bd a13f d1bd
000003e0: dd3c b33d 1878 953d 2828 84bd b67e 4ebd
000003f0: 8cc8 093e 9948 2b3c d0db 85bd 7a99 bcbd
0.06748317 0.060997378 -0.032456905 0.09636335 0.040314298 0.13793707 -0.039455913 -0.052286502
-0.12581795 -0.007519429 0.10287062 -0.06870282 0.06635952 0.020263119 0.02038253 0.033923406
-0.0948019 0.1191475 0.0022714338 0.051384494 -0.014617785 0.080034666 0.030661533 -0.009540911
0.043931182 -0.0042918334 0.1696233 -0.07293382 -0.08541222 0.014930963 0.022994071 -0.08404472
0.047978092 -0.015245443 0.0037667502 0.106143914 0.1112418 -0.11232414 0.05217824 0.12218267
0.08667589 0.093989916 -0.007313818 -0.0928057 -0.16981313 0.18668865 -0.0008840661 -0.07815273
-0.018030966 -0.2443622 -0.14108653 -0.13525905 -0.00041255212 -0.04344752 0.027699951 0.011687337
-0.04553432 0.16482696 -0.09844357 -0.01163215 -0.0046299817 0.1519708 0.060715705 0.010442573
0.03847085 -0.055437967 -0.086590774 0.046976287 -0.11704734 -0.10924452 -0.067619145 0.03991847
0.011789416 0.17796324 -0.024149515 0.000824762 0.042742442 -0.09352884 0.069144666 -0.054071143
0.033695105 -0.07245598 -0.048147697 0.07057782 0.013216976 -0.012145593 0.111249045 -0.19014177
-0.12523627 0.064591825 -0.18596116 0.14040397 -0.113522366 -0.08386006 0.042144526 -0.024541149
0.07679065 -0.032411475 0.107552536 -0.03948341 -0.011703474 -0.07284207 -0.091672674 0.036896612
-0.026650097 -0.042022433 0.12227612 0.15289563 -0.009488924 0.022350332 0.04386495 0.11771434
0.062378053 0.08463626 0.058920432 -0.04456123 0.070782535 0.08709691 -0.06700345 0.0081485985
0.0060308655 -0.06823341 0.009337002 -0.045722403 -0.080435425 -0.10771719 0.042673603 0.05157495
0.025158772 -0.056806166 -0.08941695 -0.08857496 -0.06603525 0.03806463 0.18865031 -0.04274005
0.09068911 -0.008482818 0.06161942 -0.04930312 0.02441725 0.076072834 0.040841073 -0.07157941
0.075887695 0.24160655 0.27337918 -0.112814486 -0.0025258188 -0.061470732 -0.0812494 0.017407278
0.08989001 0.14478599 0.048206996 0.12196462 0.0065393588 -0.1084623 0.010259664 -0.053962585
0.16983041 -0.10362908 0.006425931 0.025118124 -0.13258068 0.07397492 0.03620984 -0.074163385
-0.007384286 -0.104876064 0.08822591 -0.16090879 0.055333577 -0.07626856 0.06724961 -0.038073186
0.15036753 -0.07786875 -0.029206205 -0.1530716 -0.032412447 0.04379939 -0.14444828 -0.095498614
0.024811856 -0.053947706 -0.14822555 0.08804236 0.047834586 -0.08865215 -0.055030864 0.009616436
0.035497762 0.03538577 -0.07327629 -0.01197413 0.0426681 -0.039226875 0.046747386 -0.044868633
0.020452313 -0.17014833 -0.14852381 -0.0318441 0.009650217 0.13872781 -0.018995631 -0.010451811
0.0019431224 -0.046755955 -0.02689716 -0.059639633 0.14357893 -0.045023248 -0.24465428 -0.002669899
-0.091311306 0.059064884 -0.013352654 0.019760653 0.0017019702 -0.04317015 0.04124397 -0.055409532
0.05799511 0.09764324 -0.11313502 -0.108635895 -0.05816469 0.033940837 0.014137617 -0.14222121
-0.03626697 -0.057417918 0.093068175 0.04032221 0.09458196 0.055542078 -0.0023409922 0.054002438
0.04384471 -0.089688055 0.2730359 -0.061547022 -0.09741927 0.017683152 -0.07814938 -0.102172144
0.08751843 0.07298297 -0.06452972 -0.05041381 0.13455409 0.01045432 -0.065360665 -0.09208961

branch.Wz.3.bias f4 [128]
00000000: 4bdb e53b 2b3b f73c 4eba 00bd 82a8 b3bb
00000010: 3509 db3b 8014 e63b 5812 583c b0b9 bf3d
00000020: 107d d23c 2ab3 073c 8c38 0a3c 076a 59bc
00000030: 5888 153d 7fe1 91bc 3784 a13d 57b3 97bc
00000040: b517 8bbd 18c1 b33b 86e6 12bd ff35 b03c
00000050: 8938 09bc fd64 063d a087 dabb 63d2 de3c
00000060: 0459 b1bc 7d99 563a a723 8e3c b0be 13bd
00000070: f41f 3dbc b29a c2ba ed8e 3abd 8afe 093d
00000080: f03c e1bc ebb0 243d 3dc5 c3ba 7dfc 9eba
00000090: 0c9f b33c 9235 003c 7396 b13c a133 8dbb
000000a0: cddc 06bd c13f 91ba dc00 ac3c 13dc 923c
000000b0: f079 bbba 0780 973c 8988 d0bc a735 a8bb
000000c0: 455d 593c eda1 f83c 6cb3 553d 50a4 c63c
000000d0: 0df5 2c3d a327 0f3d dbfa 313c f554 8a3b
000000e0: 6767 70ba dca5 02bc 343a bc3b 9fc0 9cbb
000000f0: 24ca 18bd 67a6 f6bc 1c12 8ebc 7f8c d63c
00000100: dac9 26bc 8bd2 223c 04b3 c4bc 1474 02bc
00000110: c398 2ebd 24b0 8bbb 6681 e03c 1f24 a63b
00000120: d4e0 7b3c b4ac eabc ffcd 2ebd 148e 053d
00000130: 14ac d73d f3a0 7d3c 61a3 fabc 693a 0a3c
00000140: 0354 853c 78e4 c53c 1cc4 003a 2424 e73c
00000150: 9c83 91bc dbbf b2bc 59b7 89bd d49b eebb
00000160: ed9b 23bd 30ea 7dbd 2d00 b03c 9fa3 783b
00000170: 0cdc 42bd 32db 263c 9068 7e3c 231f 113d
00000180: d44f 0ebd f7f4 013d 5943 80bb 6adb 4bbc
00000190: f563 ed3c b60f 92bc a6f0 45ba 2e36 51bc
000001a0: fcbd babc 9c02 0f3c 181d cc3b 3a8d a73c
000001b0: 4c7d 15bd 5965 733b 2d25 f6bc afd9 13bd
000001c0: f9ed 2fbd b314 043d 2262 aa3c 92ac 433d
000001d0: dbc5 b23b 8906 23bc 4a6a 653c a15f a5bc
000001e0: aabc 39bd 1df3 c4ba 3f93 253d 98af 9dba
000001f0: 3d12 80ba eb97 233d 3fe8 f5bb 7911 55bc
0.007014667 0.03017958 -0.031427674 -0.005482734 0.006684447 0.0070214868 0.013187967 0.09361589
0.0256944 0.008282462 0.008436333 -0.013269908 0.03650698 -0.01780772 0.07886546 -0.018518133
-0.06791631 0.005485665 -0.035864376 0.021510122 -0.008375295 0.032811154 -0.006669 0.02719993
-0.021648891 0.00081863237 0.017350985 -0.036070526 -0.011543263 -0.0014847128 -0.04554646 0.033690013
-0.027494878 0.040207785 -0.0014936101 -0.0012129691 0.021926425 0.007825272 0.021678185 -0.004309133
-0.032925416 -0.0011081622 0.020996504 0.017927205 -0.0014303308 0.018493665 -0.02545573 -0.005133349
0.013266866 0.03035065 0.052173063 0.024248272 0.042225886 0.03494991 0.010863031 0.0042215534
-0.00091706816 -0.007974114 0.005744243 -0.0047837044 -0.03730215 -0.030108644 -0.01734262 0.02619004
-0.010179961 0.009937893 -0.024011143 -0.0079622455 -0.042626154 -0.004262941 0.027405452 0.005070224
0.015373427 -0.028646804 -0.042676922 0.0326062 0.10530868 0.015480268 -0.030595483 0.008436778
0.016275411 0.024156794 0.0004912035 0.028215475 -0.017762952 -0.02182 -0.06724424 -0.0072817598
-0.039943624 -0.061990917 0.021484459 0.0037939323 -0.047573134 0.010184096 0.015527859 0.035430085
-0.0347441 0.031727757 -0.0039142785 -0.012442449 0.028978327 -0.017829757 -0.0007550813 -0.012769265
-0.02279567 0.0087286495 0.006229054 0.020453084 -0.036496446 0.0037139265 -0.030047024 -0.03609627
-0.042951558 0.032246303 0.020798746 0.047771998 0.005455715 -0.009950289 0.014002392 -0.020187201
-0.04534594 -0.0015026067 0.040423628 -0.001203048 -0.000977106 0.039939802 -0.0075044925 -0.013004654

branch.Wz.4.weight f4 [64, 128]
00000000: 050a 6e3d cf0d 33be 435f bf3d a56e 3d3c
00000010: 0e19 2abe 4186 f5bc e883 7bbc a3fc 5ebc
00000020: ac51 503d 6c94 07be 2ae1 c5bd 4df2 fa3d
00000030: 5ca9 eb3d 24ac d63d 96c0 133e e2c6 7a3d
00000040: 641e 3aba aa2e 053d 5559 22bd da94 9d3d
00000050: c67c d2bd fc85 e53d 6285 2cbe d52f 4b3e
00000060: 6419 a53c 1fa8 4b3c 0b8a 823d 02df 92bc
00000070: 14b2 ac3d 1307 b83d 27c5 e8bd e56e 38bd
00000080: 7eb1 18bd f4e8 5a3e 813a 44bc c297 3a3d
00000090: 385a 283e ef8c fd3d a892 8dbc 1548 c83d
000000a0: 23bb aa3d 9eda e5bd aad1 863d 65e4 6e3d
000000b0: 850b 65bd f993 083e 8ab7 f23d 6838 7c3d
000000c0: df2a 90bd ac9d 8ebc 5859 943c 9e29 30be
000000d0: 4218 3abd 6bed 233a 8d2f debc 7807 b1bd
000000e0: 2c93 5e3c 9d18 0b3e c551 90bd cac2 15be
000000f0: 0d6f 203d 1bfa a2ba 1f61 e03d be85 383e
00000100: e6b6 39be dc5f 1ebe 9600 3fbd 60a7 f33d
00000110: 5e46 b3bd 7b95 1e3e d9c1 d8bc 0e27 d1bd
00000120: 9e35 853d 9cd5 a5bc 20dc 1c3d ccff b53d
00000130: 81d7 0b3e 0843 a53d 6d66 babd 04f3 f0bd
00000140: 933b d9bd d631 debc 3f37 9abd f9b7 013d
00000150: bb1e c6bd 36cf 59bd fac0 9e3d 1654 a73c
00000160: 240f 2bbe 4bca e53d 9ed8 65bd 6af8 233d
00000170: f660 0ebe 774d 41be b6e2 953d cec9 373e
00000180: 9e36 9c3d 767c afbd 7575 1dbd 90cb f7bd
00000190: 5a76 8fbd e15f 6b3d 665f 833e 5eab f7bd
000001a0: b54e dfbd 1d92 98bb 3f24 043d 9a7c 19bd
000001b0: 0669 08be af2d 9bbc 6416 46bd e727 ab3c
000001c0: 17ab a3bc d9ba 703d 30bd 3fbd b6f2 3abd
000001d0: 4b35 93bd 2951 cc3d b451 b93c f938 6c3c
000001e0: 11a1 20be ae86 213c f8f2 1abe 6c2d 92bd
000001f0: d60d 78be 4dd6 6d3d abeb 7c3d 6bd2 7fbe
00000200: 0730 9e3d 31a4 44be 9e06 ba3d 39c0 03be
00000210: 6ebb 203d 9b67 a73d cdd5 2cbd 2038 073e
00000220: 2f83 593d dc23 2c3e 8009 0fbe 8607 0c3d
00000230: 963c 14be 7aa1 abbd 04b8 f9bd f107 a3bc
00000240: 6097 b4bd 30d4 a8be d565 053e dd47 24bc
00000250: c06d 9f3d e319 e13d da88 49bd 0d87 593b
00000260: cd4a 893d 7afc a8bc 27c8 ec3b f033 06be
00000270: f595 403d 65fc 0ebd c881 eabd bb08 edbd
00000280: b973 c7bd 8981 d23b 3468 e2bd a507 12be
00000290: 617c d0bc ecd4 443d 3534 8ebd ea01 573d
000002a0: f477 afbc f5bc 993d 0ae7 07bc 28c5 a23d
000002b0: 34f5 c83d d8bf c83c 055c 3a3e 6829 51bd
000002c0: 7b36 c0bd c91f 63be 026e 193e 9201 853d
000002d0: 95eb a5bd 627a 8bbd bf62 4ebe ce57 553d
000002e0: 9079 13be 81cf 91bd 7835 a73d 4cd5 933c
000002f0: 9ed3 12bd ec20 4ebe e66a 9a3c dc2e bebd
00000300: 9dbb 8f3d 0b85 ebbd 6db7 b33c 7d5c e13d
00000310: 9bb2 213d 3fe5 81be 0b39 383e f0c4 9d3c
00000320: ef0c b4bd 6c91 833c 55ee 35bd 7902 8bbd
00000330: 9634 f9bc 5279 eb3d 20bb f9bc 6338 a03c
00000340: 5d3c 5bbd 9ad9 ab3d 2664 6a3d 571a 273e
00000350: 2ddf 7a3e ffb2 1b3d 18af dabd 9c71 cb3d
00000360: c544 1fbc 3474 bfbd 8b6a 22bd 233d cfbc
00000370: ee94 d0bd 0e8e 6fbe 25f5 643d 9c3b 993d
00000380: 9f80 c73d 29ad ffba e338 653c 300b f53c
00000390: e9fe 853d 1732 2f3c 8b59 3bbc 7ee6 8c3c
000003a0: 88d8 653d 730d 9b3d a5e0 f33d 4cbf 6dbe
000003b0: b333 0f3d 189b e5bd 7430 0cbd 97f6 0f3e
000003c0: ec45 003d 80e9 193e 1dab 12bd f654 493d
000003d0: f8b5 08be 2e80 10be 64b1 e1bd 3a53 5f3d
000003e0: 9894 10bc c77f 4fbe a91c 233d d045 11be
000003f0: 3f40 40bd b401 253c 3f1e ccbc cc19 a43d
0.058115024 -0.17485736 0.093443416 0.011562024 -0.1661112 -0.029971244 -0.015351273 -0.013610038
0.05085914 -0.13240212 -0.09662087 0.122532465 0.11506912 0.10482052 0.14428934 0.061224826
-0.00070998655 0.032515205 -0.039635975 0.07694407 -0.10277705 0.11207196 -0.16847757 0.19842465
0.020153709 0.01243022 0.06373986 -0.017928604 0.08432403 0.08985724 -0.11365729 -0.045027632
-0.037278645 0.21377927 -0.011976839 0.045554884 0.16440666 0.123803966 -0.017281845 0.097793736
0.08336475 -0.112233385 0.06582959 0.058323283 -0.05591919 0.13337697 0.118514135 0.06157723
-0.07039427 -0.017409168 0.018109009 -0.17203376 -0.04543329 0.00062533346 -0.027122283 -0.08644003
0.013584893 0.13583608 -0.07046846 -0.14625087 0.039168406 -0.0012434156 0.109560244 0.18019769
-0.18136176 -0.15466255 -0.04663142 0.118971586 -0.08753656 0.1548671 -0.026459621 -0.10212527
0.06504367 -0.020243458 0.038295865 0.0888668 0.13656427 0.08069426 -0.091015674 -0.117651016
-0.10607066 -0.027123373 -0.075300686 0.03166959 -0.0967383 -0.053176127 0.07751651 0.020425837
-0.16704994 0.11220225 -0.056114785 0.040031828 -0.13904175 -0.18877207 0.07318632 0.17948076
0.07627605 -0.08568661 -0.038442094 -0.12099373 -0.07004996 0.057464484 0.2565872 -0.120932326
-0.10903684 -0.00465609 0.03226113 -0.037472345 -0.13321313 -0.018942682 -0.048361197 0.02089305
-0.019979043 0.05877194 -0.046811283 -0.045641623 -0.07187899 0.099764176 0.022621967 0.01441788
-0.15686442 0.00985877 -0.15131748 -0.0713757 -0.24224028 0.0580657 0.061748188 -0.24982612
0.07724004 -0.19203259 0.090832934 -0.12866296 0.039241247 0.08174058 -0.042196084 0.13205004
0.053103622 0.16810554 -0.13968468 0.034186862 -0.14476237 -0.083804086 -0.12193301 -0.019901248
-0.08817935 -0.32974386 0.13027127 -0.010026899 0.07784605 0.109912656 -0.049202777 0.0033192069
0.0670372 -0.020628203 0.0072260085 -0.1310575 0.04701801 -0.03490867 -0.11450535 -0.11573931
-0.09738869 0.006424133 -0.110550314 -0.14260729 -0.025449933 0.04805462 -0.069435515 0.05249206
-0.021419503 0.07506744 -0.00829483 0.07947761 0.09812394 0.02450554 0.18199165 -0.05106488
-0.09385391 -0.22180094 0.14983371 0.0649444 -0.08101574 -0.06810452 -0.20154856 0.05208569
-0.14401841 -0.07119656 0.08164495 0.018046044 -0.035846345 -0.20129746 0.018849801 -0.092862815
0.07018206 -0.11499985 0.02193805 0.11003969 0.039476972 -0.25370213 0.1799051 0.019258946
-0.087915294 0.016060553 -0.044416744 -0.06787581 -0.030420583 0.114977494 -0.030484736 0.019558137
-0.053524364 0.083911136 0.057224415 0.16318642 0.24499197 0.0380125 -0.10677928 0.09933779
-0.009720986 -0.09348336 -0.03965239 -0.025297707 -0.10184656 -0.23394033 0.05589785 0.07482073
0.097413294 -0.0019506562 0.013990614 0.029912561 0.06542761 0.010693095 -0.011434923 0.017199751
0.056114703 0.075709246 0.11908082 -0.23217505 0.034961414 -0.112112224 -0.034225896 0.1405891
0.031316683 0.1503048 -0.035807718 0.04915329 -0.13350666 -0.14111397 -0.11020163 0.05452273
-0.00882449 -0.20263587 0.039822254 -0.14186788 -0.04693627 0.010071207 -0.024916766 0.08012733

branch.Wz.4.bias f4 [64]
00000000: a7ca 293d cdba be3b 1878 04bd 170f 4c3d
00000010: c3e6 29bd 2bea 4abc 065e f83c 3986 743d
00000020: 67b4 243c 3ca3 c23d dbf6 a9bd 5003 c63a
00000030: 6169 9a3d eb7f a6bd ed6d 173d 5a00 7c3d
00000040: 9994 1abb 1d15 bf3c ff00 163c a599 0dbd
00000050: 09b0 4dbc 7d50 37bd 034a 83bd 1b71 f3bc
00000060: 502c a2bd 9b73 a43d ef2e 1fbd f891 2dbd
00000070: b46d 213b eb0d 9f3d 5c08 413d b148 6ebd
00000080: e9e0 18bd 1b5f e43c 00e9 3b3d 98a8 9cbd
00000090: 46c5 773c 00ea 1dbd 850e c6bd bcf4 3cbb
000000a0: 89ba 1738 f23d 92bc 40ee f8bc 3e1c 6fbc
000000b0: bd25 b53c 959d 01be f2ee 7b3d 5b99 a3bb
000000c0: 431b 823d f680 5f3c 30f0 41bd b1fc c8bc
000000d0: 9295 4b3d 3f1e 33bd f210 96bc e746 a6bc
000000e0: 38bf 1abd fdfd 123c ad67 3abd 57be 1c3d
000000f0: a698 c9bc f8c4 de3c b5e9 4b3c 6e40 1c3c
0.04145303 0.005820608 -0.032341093 0.04981908 -0.041479837 -0.012384932 0.030318271 0.059698317
0.010052777 0.09503791 -0.08299037 0.0015107188 0.07539631 -0.08129867 0.036970068 0.061523773
-0.0023587106 0.023325497 0.009155511 -0.034570355 -0.012554177 -0.044754494 -0.06410601 -0.029717019
-0.07918608 0.080298625 -0.03886312 -0.042375535 0.0024632039 0.077663265 0.047127113 -0.058174793
-0.037323866 0.027877381 0.045876503 -0.07649344 0.015122717 -0.038553238 -0.09670738 -0.0028832396
3.617493e-05 -0.017851803 -0.030387044 -0.014594136 0.022112722 -0.12657769 0.061507173 -0.0049926466
0.06352856 0.0136415865 -0.0473482 -0.024534555 0.04970319 -0.043730017 -0.018318627 -0.02029748
-0.037780017 0.008971688 -0.04550903 0.03826746 -0.024608921 0.027193531 0.012445857 0.009536846

branch.Wz.5.weight f4 [32, 64]
00000000: 0340 a03d f424 c0bd 6dde d6bd 7eeb 113c
00000010: 46e1 45be 3be1 bfbc 21ae d23d e601 b63c
00000020: 1e29 bbbd d38d 18bc f207 b4bc 1b43 5d3d
00000030: d6ee 1c3e 25ee 83bc 2c49 a93d a5aa 39bc
00000040: 097e 2fbe 7aa1 d53c 55e7 693d dab3 9bbd
00000050: 3884 efbd a702 cf3d c43e 0fbd e3d7 84bd
00000060: faeb a43d d6c9 3cbd 2405 4d3d 66ee 2c3e
00000070: 275f a83c 242a 483c 7b38 7fbd 2e76 ddbc
00000080: 2846 483d ae2e 9abd 2b4a 35bb e579 ba3d
00000090: 6f68 3fbe 7bc0 4dbe 9475 0fbe 407a ae3c
000000a0: 51f9 243d 835c 1cbe e29e c2bc ca84 623d
000000b0: 0990 7a3e 8a45 6f3d d05b 663d 09de 0e3d
000000c0: 39ba f5bc 1b9f f1bb 899d f8bd e16a 813e
000000d0: 983e ff3c 012a 2dbe 8af4 a53d ac03 6c3d
000000e0: 4ca2 083e 01c6 413e 326d 153e 1fda bebd
000000f0: 2eae 583d c487 7bbd 9e26 fcbc 6e24 eabd
00000100: 7fd1 ce3c 957d 6c3d 5489 76bd 6bf9 2c3d
00000110: 0e65 4bbe d198 aebd cf85 0bbd 4b88 9fbb
00000120: 551d d3bd 4a83 153e 9d19 d4b9 9f31 4cbe
00000130: b341 84bd 8b4d 9b3d bf32 873d 9dc9 503e
00000140: 060f 4e3e 162d 07bb b74d 5c3e 88eb fe3d
00000150: 6e9b e43e 3c5a 3c3d 9f96 bfbd 3226 8ebd
00000160: 8b8f 073d e1f3 593e 7b0a 203b 3e54 983b
00000170: a628 08be 7fdc 94be 7b26 df3c 2594 0f3b
00000180: d4f4 683c db33 cebd 2e2f 31bc 9d79 013e
00000190: a628 9a3e e20e 8b3d e055 123d 950b 34be
000001a0: 1f8e 1f3e 770d 91bd 3e64 893d 6329 bdbd
000001b0: 8aba 0ebd 65db 5b3d 46bd e0bd 9ccf 44bd
000001c0: 1a6f f6bd 05ab 4c3e c027 1c3e bb30 0ebe
000001d0: 64fb 3fbe dc38 1dbe ebe0 303e 2395 34be
000001e0: ad3f 05bc cdcd ba3d 0ff7 b6bd 394c 8a3c
000001f0: c168 a5bd 80c2 37be 27a2 ccbc 1689 5d3b
00000200: 6a4d 1e3e 6512 bfbd 3aa7 a83d 6bac 94bc
00000210: 7c30 933d c044 4dbd ceb1 043d 36b6 51be
00000220: b493 14be bfd5 bebd e264 863e e3b1 12be
00000230: aaab 153e 6db2 80bc f8a1 043c 788b c53d
00000240: aa03 153c b49a e23d fafd a5bd ef8d 1dbe
00000250: 33e7 f63d d199 2fbe c0e0 4cbd 8eb8 38be
00000260: dbc3 c03d 8976 ac3e f7b6 2cbe 2050 ef3d
00000270: 46e8 a23d 0665 203d e54d 95bd 1d04 1b3e
00000280: d42d 2c3c 0fbd 8b3d 0cd3 babc 5dea cdbd
00000290: 9e63 043e 7618 3f3c b5f4 cabb 8061 67bd
000002a0: 4e3f f63c 5093 bd3d ac79 18be 1890 74be
000002b0: 05e8 adbd 594a a13c 4ed3 183e 069d 833d
000002c0: 6f6a 563d 01fe 4d3d 5223 853d b049 94bd
000002d0: 85ee 303c 4dda c6bd be3c 963c ae90 52bc
000002e0: 6b2e 6b3e 4fa5 6a3c ae86 1f3e 19dc 8bbe
000002f0: 59a1 edbd 317c 82bd 3323 c53d 9c88 883d
00000300: 4426 a93e 7e22 70be 7f7f 53be b1ee 8cbc
00000310: bf95 2b3e 7ce4 133e 49de 293e 39ec fdbd
00000320: c18a d03d 643c 9dbd bc03 aa3b 05e9 89bc
00000330: f1a4 8b3c a7bf 843e 440f 193e 9318 1e3e
00000340: 9e92 09be 494d aa3e 8b8d f1bd 0d7b 7a3e
00000350: f5e7 263e 0611 30bd 9828 453e a9fe ebbd
00000360: bad7 6d3d d507 303e 91f1 403e 0f5f 123e
00000370: 6f81 adbd 94d8 9d3d 398a 353e 1ec4 eb3d
00000380: 68e0 9dbd b1fb 33be 5e19 223e 18ec 5d3d
00000390: b60e 003e 7c47 033e ffa1 19be 013d 0cbe
000003a0: 56a5 10bd 7cc0 73bd f1ab 9bbd c2b7 12be
000003b0: c389 87bb 00f2 243e 305c 853d 8ce7 40ba
000003c0: 539f 9cbd c87c 9bbd 36d5 9f3b dddd 023e
000003d0: f405 e6bd 935c 48be 0cb8 063e a116 b43d
000003e0: 3bf2 02be 823b 013e ba5f 973e e0ea 0b3d
000003f0: 7227 be3b 9cba 95be 49cd 1d3e 6574 ef3a
0.07824709 -0.09382048 -0.10491643 0.008906243 -0.19324216 -0.023422828 0.10287119 0.022217702
-0.09138702 -0.009311157 -0.021976445 0.054019075 0.15325484 -0.016104767 0.082659096 -0.011332189
-0.17137922 0.026077975 0.05710538 -0.07602663 -0.116951406 0.10107928 -0.034971967 -0.064864896
0.080528215 -0.046090923 0.05005373 0.16887817 0.020553185 0.012217078 -0.062309723 -0.027033892
0.04889503 -0.07528435 -0.0027662616 0.09105281 -0.18692182 -0.20092957 -0.14009696 0.021298528
0.04027683 -0.15269665 -0.023757402 0.05530242 0.24469008 0.058415927 0.056239903 0.034879718
-0.029996024 -0.007373703 -0.121394224 0.25276855 0.031157777 -0.16910554 0.08103283 0.05762069
0.13343161 0.18923189 0.14592436 -0.09318947 0.052900486 -0.061408773 -0.030780133 -0.1143273
0.02524638 0.05773695 -0.06018956 0.04223005 -0.19862768 -0.08525241 -0.034063157 -0.0048685423
-0.10308329 0.14600864 -0.00040454874 -0.19940804 -0.06457844 0.075831495 0.06601476 0.2038941
0.20122918 -0.0020626239 0.21514021 0.12447268 0.44649833 0.04598449 -0.093549006 -0.06940879
0.033095878 0.21284439 0.002442031 0.0046487143 -0.13296756 -0.29074475 0.027240029 0.002190837
0.014218528 -0.100684844 -0.010814471 0.12644048 0.30109137 0.06789948 0.035726428 -0.17582543
0.15581559 -0.07082646 0.06708573 -0.092364095 -0.034845866 0.053676028 -0.10973601 -0.048049554
-0.1203291 0.19987114 0.15249538 -0.13885777 -0.18748242 -0.15353721 0.172733 -0.17635016
-0.008132857 0.09121285 -0.089338414 0.016882049 -0.08076621 -0.1794529 -0.024979664 0.0033803633
0.15459219 -0.0932968 0.08235021 -0.018148622 0.07186982 -0.050114393 0.03239613 -0.20479664
-0.1450947 -0.093181126 0.26248842 -0.14325671 0.14616266 -0.01571008 0.008095257 0.09645742
0.009095112 0.110646635 -0.08105083 -0.15386175 0.120558165 -0.1714852 -0.050019026 -0.18039152
0.094123565 0.33684185 -0.1686667 0.116852045 0.07954459 0.039158843 -0.07290248 0.15138288
0.010508973 0.068231694 -0.022805713 -0.10054467 0.12928626 0.011663547 -0.006193722 -0.056489468
0.030059483 0.09256613 -0.14890164 -0.23883092 -0.0849152 0.019688772 0.14924356 0.06426434
0.052347597 0.050291065 0.065008774 -0.07240617 0.010799055 -0.09709606 0.018339511 -0.012851877
0.22966926 0.014321639 0.1557872 -0.2731636 -0.1160304 -0.06371344 0.09625854 0.06666681
0.33037007 -0.23450658 -0.20654105 -0.01720366 0.16756342 0.14442629 0.16588701 -0.123985715
0.10182715 -0.07677534 0.0051884335 -0.016834745 0.017046424 0.2592747 0.1494723 0.15439062
-0.13434836 0.3326209 -0.11794575 0.24461003 0.16299422 -0.042984985 0.19253767 -0.11523182
0.05806706 0.17190488 0.1884215 0.14294074 -0.08471953 0.077073246 0.17728509 0.11512016
-0.07708818 -0.17576481 0.1582999 0.054180235 0.12505612 0.12820238 -0.15003203 -0.13695146
-0.035313927 -0.05950974 -0.076011546 -0.1432791 -0.0041362955 0.1610794 0.06511724 -0.0007358722
-0.07647576 -0.075921595 0.0048777116 0.12779947 -0.11231604 -0.19566564 0.13156146 0.087933786
-0.12787716 0.12620357 0.2956522 0.03415954 0.005803042 -0.29243934 0.15410341 0.0018268941

branch.Wz.5.bias f4 [32]
00000000: 6260 90bc f238 5ebc a18c 8a3c 1dba 9b3b
00000010: 1e69 0bbd c465 4ebc d471 cb3c 2b06 8b3c
00000020: 7873 953d c6c2 d7bd 26ad d3bd eea3 9fbd
00000030: f90a e63d 0d3f 8abd 7089 9cbd 9685 b83d
00000040: 3e38 d0bc 8326 c13c 83a2 ed3c 46a8 35bc
00000050: c09f 17bd 8251 fabb f0ab 0cbd bf10 bbbc
00000060: ac05 29bd 1f52 d93c ffdc e7bc f5f6 083d
00000070: 4bfa ae3c d7a7 41bc 76f7 373d ab85 683d
-0.017624084 -0.0135633815 0.01691276 0.004752411 -0.034035794 -0.012597505 0.02483455 0.016970715
0.072974145 -0.10535197 -0.1033576 -0.07794939 0.112325616 -0.06750307 -0.076434016 0.090098545
-0.025417443 0.023577934 0.029008156 -0.011087483 -0.037017584 -0.007639111 -0.03434366 -0.022835134
-0.041265175 0.026528416 -0.028303621 0.03343864 0.021359583 -0.011819801 0.04491373 0.0567681

trunk.Wz.0.weight f4 [32, 2]
00000000: 9cf3 f73d 4755 26bf 63c1 1d3e 6e8c 8fbd
00000010: d57f a73c 9293 ca3d 58af fabe a977 323f
00000020: 4d31 1f3e f10b b93d f99f 60be 2c94 14be
00000030: 2f97 d1bd 4fe6 a5bd fc12 02bf 6fc4 a53d
00000040: 51e0 e63c 3ec8 a0be 10d4 acbb afdf 823e
00000050: 819e 27be 63ab 2a3e fe38 6d3c 40f5 92be
00000060: f85e 6fbd adfb 44be b13e 2fbd d607 4ebd
00000070: ac02 0ebd 3da0 5bbd 8935 8fbd 6d9c 853e
00000080: 82d7 92be 088b 173f 94a9 913d 7b98 51be
00000090: 50a5 063e 2d9c 15bf b1de 413e 0afa dbbd
000000a0: b1a2 49bd e8eb 673d b5d6 d03c 5362 ed3c
000000b0: f46c 6d3e e004 283d 200b b53c 7f10 ea3d
000000c0: 42f8 52bd 5201 5bbe d152 33bd bb97 6f3e
000000d0: 2805 833e 9f55 07bd 6ce0 4cbd f2e9 55be
000000e0: c4ae 1b3b f292 453e 69c3 5b3d 3ba9 cebc
000000f0: ce24 9bbd 8b56 b7bd 8241 663e d4c4 f2be
0.12107012 -0.6497387 0.15405802 -0.07009207 0.020446697 0.09891428 -0.48961902 0.69713837
0.1554615 0.09035481 -0.21936025 -0.14509648 -0.10233914 -0.081005685 -0.5081022 0.08094107
0.028183134 -0.31402773 -0.0052743033 0.25561282 -0.16369058 0.16666941 0.01447892 -0.28702736
-0.05844018 -0.19236632 -0.042784397 -0.05030044 -0.034670517 -0.053619612 -0.06992633 0.26095906
-0.28680044 0.5919652 0.071124226 -0.20468323 0.13148999 -0.5844143 0.18932606 -0.107410505
-0.04922742 0.056621462 0.025493005 0.028977549 0.23186094 0.041020274 0.022100031 0.11428928
-0.05150629 -0.21387222 -0.04378015 0.23397724 0.2558987 -0.03304064 -0.050018713 -0.20890024
0.0023755291 0.19294336 0.053653155 -0.02522718 -0.07575379 -0.08952054 0.22485927 -0.47415793

trunk.Wz.0.bias f4 [32]
00000000: 336e 9cba 1bee 01be ad2e 09bd 8a4e 313e
00000010: 5e10 12be aa0b c83d 8791 cd3d 27d2 2b3e
00000020: de85 c2bc d0c9 39bd 0855 d13d 21a4 e93c
00000030: fffc 413d b219 443d b059 3d3d 34a7 303d
00000040: e3db 0c3e 1a3a 33bd a4fd 95bc 67c1 e3bd
00000050: e5de 253d 3750 cfbc 109f 28be f60e 14bd
00000060: f70f af3d 3ac7 213c b278 09be fbc4 973d
00000070: d481 0bbd 2ebf 31bd 45d8 b53d c3c3 86bd
-0.0011934697 -0.12688486 -0.03349178 0.17315117 -0.14264056 0.0976785 0.10037523 0.16779386
-0.023745473 -0.04535848 0.102212965 0.028520646 0.047360417 0.047876067 0.04622811 0.043128207
0.13755755 -0.04375658 -0.018309422 -0.11120873 0.040495772 -0.025306804 -0.16466928 -0.03614708
0.08547967 0.0098741595 -0.13424948 0.07410618 -0.03405936 -0.043395214 0.08879141 -0.06580307
